{"format": "graph-model", "generatedBy": "2.6.0", "convertedBy": "TensorFlow.js Converter v3.9.0", "signature": {"inputs": {"input_1": {"name": "input_1:0", "dtype": "DT_FLOAT", "tensorShape": {"dim": [{"size": "-1"}, {"size": "20"}, {"size": "20"}, {"size": "1"}]}}}, "outputs": {"output_1": {"name": "Identity:0", "dtype": "DT_FLOAT", "tensorShape": {"dim": [{"size": "1"}, {"size": "-1"}]}}}}, "modelTopology": {"node": [{"name": "StatefulPartitionedCall/gomoku_net_1/sequential_55/conv2d_51/Conv2D/ReadVariableOp", "op": "Const", "attr": {"dtype": {"type": "DT_FLOAT"}, "value": {"tensor": {"dtype": "DT_FLOAT", "tensorShape": {"dim": [{"size": "1"}, {"size": "1"}, {"size": "32"}, {"size": "1"}]}}}}}, {"name": "StatefulPartitionedCall/gomoku_net_1/Reshape/shape", "op": "Const", "attr": {"dtype": {"type": "DT_INT32"}, "value": {"tensor": {"dtype": "DT_INT32", "tensorShape": {"dim": [{"size": "2"}]}}}}}, {"name": "input_1", "op": "Placeholder", "attr": {"dtype": {"type": "DT_FLOAT"}, "shape": {"shape": {"dim": [{"size": "-1"}, {"size": "20"}, {"size": "20"}, {"size": "1"}]}}}}, {"name": "StatefulPartitionedCall/gomoku_net_1/sequential_28/conv2d_26/Conv2D_weights", "op": "Const", "attr": {"value": {"tensor": {"dtype": "DT_FLOAT", "tensorShape": {"dim": [{"size": "7"}, {"size": "7"}, {"size": "1"}, {"size": "32"}]}}}, "dtype": {"type": "DT_FLOAT"}}}, {"name": "StatefulPartitionedCall/gomoku_net_1/sequential_54/sequential_48/residual_block_17/sequential_46/conv2d_45/Conv2D_weights", "op": "Const", "attr": {"value": {"tensor": {"dtype": "DT_FLOAT", "tensorShape": {"dim": [{"size": "7"}, {"size": "7"}, {"size": "64"}, {"size": "64"}]}}}, "dtype": {"type": "DT_FLOAT"}}}, {"name": "StatefulPartitionedCall/gomoku_net_1/sequential_28/conv2d_26/Conv2D_bn_offset", "op": "Const", "attr": {"dtype": {"type": "DT_FLOAT"}, "value": {"tensor": {"dtype": "DT_FLOAT", "tensorShape": {"dim": [{"size": "32"}]}}}}}, {"name": "StatefulPartitionedCall/gomoku_net_1/sequential_54/sequential_53/residual_block_19/sequential_51/conv2d_50/Conv2D_bn_offset", "op": "Const", "attr": {"value": {"tensor": {"dtype": "DT_FLOAT", "tensorShape": {"dim": [{"size": "32"}]}}}, "dtype": {"type": "DT_FLOAT"}}}, {"name": "StatefulPartitionedCall/gomoku_net_1/sequential_54/sequential_33/residual_block_10/sequential_29/conv2d_27/Conv2D_weights", "op": "Const", "attr": {"dtype": {"type": "DT_FLOAT"}, "value": {"tensor": {"dtype": "DT_FLOAT", "tensorShape": {"dim": [{"size": "7"}, {"size": "7"}, {"size": "32"}, {"size": "64"}]}}}}}, {"name": "StatefulPartitionedCall/gomoku_net_1/sequential_54/sequential_48/residual_block_17/sequential_46/conv2d_45/Conv2D_bn_offset", "op": "Const", "attr": {"dtype": {"type": "DT_FLOAT"}, "value": {"tensor": {"dtype": "DT_FLOAT", "tensorShape": {"dim": [{"size": "64"}]}}}}}, {"name": "StatefulPartitionedCall/gomoku_net_1/sequential_54/sequential_33/residual_block_10/sequential_29/conv2d_27/Conv2D_bn_offset", "op": "Const", "attr": {"dtype": {"type": "DT_FLOAT"}, "value": {"tensor": {"dtype": "DT_FLOAT", "tensorShape": {"dim": [{"size": "64"}]}}}}}, {"name": "StatefulPartitionedCall/gomoku_net_1/sequential_54/sequential_33/residual_block_10/sequential_30/conv2d_29/Conv2D_weights", "op": "Const", "attr": {"dtype": {"type": "DT_FLOAT"}, "value": {"tensor": {"dtype": "DT_FLOAT", "tensorShape": {"dim": [{"size": "1"}, {"size": "1"}, {"size": "32"}, {"size": "64"}]}}}}}, {"name": "StatefulPartitionedCall/gomoku_net_1/sequential_54/sequential_33/residual_block_10/sequential_30/conv2d_29/Conv2D_bn_offset", "op": "Const", "attr": {"dtype": {"type": "DT_FLOAT"}, "value": {"tensor": {"dtype": "DT_FLOAT", "tensorShape": {"dim": [{"size": "64"}]}}}}}, {"name": "StatefulPartitionedCall/gomoku_net_1/sequential_54/sequential_33/residual_block_10/sequential_29/conv2d_28/Conv2D_weights", "op": "Const", "attr": {"value": {"tensor": {"dtype": "DT_FLOAT", "tensorShape": {"dim": [{"size": "7"}, {"size": "7"}, {"size": "64"}, {"size": "64"}]}}}, "dtype": {"type": "DT_FLOAT"}}}, {"name": "StatefulPartitionedCall/gomoku_net_1/sequential_54/sequential_33/residual_block_10/sequential_29/conv2d_28/Conv2D_bn_offset", "op": "Const", "attr": {"dtype": {"type": "DT_FLOAT"}, "value": {"tensor": {"dtype": "DT_FLOAT", "tensorShape": {"dim": [{"size": "64"}]}}}}}, {"name": "StatefulPartitionedCall/gomoku_net_1/sequential_54/sequential_33/residual_block_11/sequential_31/conv2d_30/Conv2D_weights", "op": "Const", "attr": {"dtype": {"type": "DT_FLOAT"}, "value": {"tensor": {"dtype": "DT_FLOAT", "tensorShape": {"dim": [{"size": "7"}, {"size": "7"}, {"size": "64"}, {"size": "64"}]}}}}}, {"name": "StatefulPartitionedCall/gomoku_net_1/sequential_54/sequential_53/residual_block_18/sequential_49/conv2d_46/Conv2D_weights", "op": "Const", "attr": {"value": {"tensor": {"dtype": "DT_FLOAT", "tensorShape": {"dim": [{"size": "7"}, {"size": "7"}, {"size": "64"}, {"size": "32"}]}}}, "dtype": {"type": "DT_FLOAT"}}}, {"name": "StatefulPartitionedCall/gomoku_net_1/sequential_54/sequential_33/residual_block_11/sequential_31/conv2d_30/Conv2D_bn_offset", "op": "Const", "attr": {"dtype": {"type": "DT_FLOAT"}, "value": {"tensor": {"dtype": "DT_FLOAT", "tensorShape": {"dim": [{"size": "64"}]}}}}}, {"name": "StatefulPartitionedCall/gomoku_net_1/sequential_54/sequential_33/residual_block_11/sequential_31/conv2d_31/Conv2D_weights", "op": "Const", "attr": {"dtype": {"type": "DT_FLOAT"}, "value": {"tensor": {"dtype": "DT_FLOAT", "tensorShape": {"dim": [{"size": "7"}, {"size": "7"}, {"size": "64"}, {"size": "64"}]}}}}}, {"name": "StatefulPartitionedCall/gomoku_net_1/sequential_54/sequential_53/residual_block_18/sequential_49/conv2d_46/Conv2D_bn_offset", "op": "Const", "attr": {"dtype": {"type": "DT_FLOAT"}, "value": {"tensor": {"dtype": "DT_FLOAT", "tensorShape": {"dim": [{"size": "32"}]}}}}}, {"name": "StatefulPartitionedCall/gomoku_net_1/sequential_54/sequential_33/residual_block_11/sequential_31/conv2d_31/Conv2D_bn_offset", "op": "Const", "attr": {"dtype": {"type": "DT_FLOAT"}, "value": {"tensor": {"dtype": "DT_FLOAT", "tensorShape": {"dim": [{"size": "64"}]}}}}}, {"name": "StatefulPartitionedCall/gomoku_net_1/sequential_54/sequential_38/residual_block_12/sequential_34/conv2d_32/Conv2D_weights", "op": "Const", "attr": {"value": {"tensor": {"dtype": "DT_FLOAT", "tensorShape": {"dim": [{"size": "7"}, {"size": "7"}, {"size": "64"}, {"size": "128"}]}}}, "dtype": {"type": "DT_FLOAT"}}}, {"name": "StatefulPartitionedCall/gomoku_net_1/sequential_54/sequential_38/residual_block_12/sequential_34/conv2d_32/Conv2D_bn_offset", "op": "Const", "attr": {"value": {"tensor": {"dtype": "DT_FLOAT", "tensorShape": {"dim": [{"size": "128"}]}}}, "dtype": {"type": "DT_FLOAT"}}}, {"name": "StatefulPartitionedCall/gomoku_net_1/sequential_54/sequential_38/residual_block_12/sequential_35/conv2d_34/Conv2D_weights", "op": "Const", "attr": {"dtype": {"type": "DT_FLOAT"}, "value": {"tensor": {"dtype": "DT_FLOAT", "tensorShape": {"dim": [{"size": "1"}, {"size": "1"}, {"size": "64"}, {"size": "128"}]}}}}}, {"name": "StatefulPartitionedCall/gomoku_net_1/sequential_54/sequential_53/residual_block_18/sequential_50/conv2d_48/Conv2D_weights", "op": "Const", "attr": {"value": {"tensor": {"dtype": "DT_FLOAT", "tensorShape": {"dim": [{"size": "1"}, {"size": "1"}, {"size": "64"}, {"size": "32"}]}}}, "dtype": {"type": "DT_FLOAT"}}}, {"name": "StatefulPartitionedCall/gomoku_net_1/sequential_54/sequential_38/residual_block_12/sequential_35/conv2d_34/Conv2D_bn_offset", "op": "Const", "attr": {"dtype": {"type": "DT_FLOAT"}, "value": {"tensor": {"dtype": "DT_FLOAT", "tensorShape": {"dim": [{"size": "128"}]}}}}}, {"name": "StatefulPartitionedCall/gomoku_net_1/sequential_54/sequential_38/residual_block_12/sequential_34/conv2d_33/Conv2D_weights", "op": "Const", "attr": {"dtype": {"type": "DT_FLOAT"}, "value": {"tensor": {"dtype": "DT_FLOAT", "tensorShape": {"dim": [{"size": "7"}, {"size": "7"}, {"size": "128"}, {"size": "128"}]}}}}}, {"name": "StatefulPartitionedCall/gomoku_net_1/sequential_54/sequential_38/residual_block_12/sequential_34/conv2d_33/Conv2D_bn_offset", "op": "Const", "attr": {"value": {"tensor": {"dtype": "DT_FLOAT", "tensorShape": {"dim": [{"size": "128"}]}}}, "dtype": {"type": "DT_FLOAT"}}}, {"name": "StatefulPartitionedCall/gomoku_net_1/sequential_54/sequential_38/residual_block_13/sequential_36/conv2d_35/Conv2D_weights", "op": "Const", "attr": {"value": {"tensor": {"dtype": "DT_FLOAT", "tensorShape": {"dim": [{"size": "7"}, {"size": "7"}, {"size": "128"}, {"size": "128"}]}}}, "dtype": {"type": "DT_FLOAT"}}}, {"name": "StatefulPartitionedCall/gomoku_net_1/sequential_54/sequential_53/residual_block_18/sequential_50/conv2d_48/Conv2D_bn_offset", "op": "Const", "attr": {"dtype": {"type": "DT_FLOAT"}, "value": {"tensor": {"dtype": "DT_FLOAT", "tensorShape": {"dim": [{"size": "32"}]}}}}}, {"name": "StatefulPartitionedCall/gomoku_net_1/sequential_54/sequential_38/residual_block_13/sequential_36/conv2d_35/Conv2D_bn_offset", "op": "Const", "attr": {"dtype": {"type": "DT_FLOAT"}, "value": {"tensor": {"dtype": "DT_FLOAT", "tensorShape": {"dim": [{"size": "128"}]}}}}}, {"name": "StatefulPartitionedCall/gomoku_net_1/sequential_54/sequential_38/residual_block_13/sequential_36/conv2d_36/Conv2D_weights", "op": "Const", "attr": {"dtype": {"type": "DT_FLOAT"}, "value": {"tensor": {"dtype": "DT_FLOAT", "tensorShape": {"dim": [{"size": "7"}, {"size": "7"}, {"size": "128"}, {"size": "128"}]}}}}}, {"name": "StatefulPartitionedCall/gomoku_net_1/sequential_54/sequential_53/residual_block_18/sequential_49/conv2d_47/Conv2D_weights", "op": "Const", "attr": {"dtype": {"type": "DT_FLOAT"}, "value": {"tensor": {"dtype": "DT_FLOAT", "tensorShape": {"dim": [{"size": "7"}, {"size": "7"}, {"size": "32"}, {"size": "32"}]}}}}}, {"name": "StatefulPartitionedCall/gomoku_net_1/sequential_54/sequential_38/residual_block_13/sequential_36/conv2d_36/Conv2D_bn_offset", "op": "Const", "attr": {"value": {"tensor": {"dtype": "DT_FLOAT", "tensorShape": {"dim": [{"size": "128"}]}}}, "dtype": {"type": "DT_FLOAT"}}}, {"name": "StatefulPartitionedCall/gomoku_net_1/sequential_54/sequential_43/residual_block_14/sequential_39/conv2d_37/Conv2D_weights", "op": "Const", "attr": {"value": {"tensor": {"dtype": "DT_FLOAT", "tensorShape": {"dim": [{"size": "7"}, {"size": "7"}, {"size": "128"}, {"size": "128"}]}}}, "dtype": {"type": "DT_FLOAT"}}}, {"name": "StatefulPartitionedCall/gomoku_net_1/sequential_54/sequential_43/residual_block_14/sequential_39/conv2d_37/Conv2D_bn_offset", "op": "Const", "attr": {"value": {"tensor": {"dtype": "DT_FLOAT", "tensorShape": {"dim": [{"size": "128"}]}}}, "dtype": {"type": "DT_FLOAT"}}}, {"name": "StatefulPartitionedCall/gomoku_net_1/sequential_54/sequential_53/residual_block_18/sequential_49/conv2d_47/Conv2D_bn_offset", "op": "Const", "attr": {"dtype": {"type": "DT_FLOAT"}, "value": {"tensor": {"dtype": "DT_FLOAT", "tensorShape": {"dim": [{"size": "32"}]}}}}}, {"name": "StatefulPartitionedCall/gomoku_net_1/sequential_54/sequential_43/residual_block_14/sequential_39/conv2d_38/Conv2D_weights", "op": "Const", "attr": {"dtype": {"type": "DT_FLOAT"}, "value": {"tensor": {"dtype": "DT_FLOAT", "tensorShape": {"dim": [{"size": "7"}, {"size": "7"}, {"size": "128"}, {"size": "128"}]}}}}}, {"name": "StatefulPartitionedCall/gomoku_net_1/sequential_54/sequential_43/residual_block_14/sequential_39/conv2d_38/Conv2D_bn_offset", "op": "Const", "attr": {"dtype": {"type": "DT_FLOAT"}, "value": {"tensor": {"dtype": "DT_FLOAT", "tensorShape": {"dim": [{"size": "128"}]}}}}}, {"name": "StatefulPartitionedCall/gomoku_net_1/sequential_54/sequential_43/residual_block_15/sequential_41/conv2d_39/Conv2D_weights", "op": "Const", "attr": {"dtype": {"type": "DT_FLOAT"}, "value": {"tensor": {"dtype": "DT_FLOAT", "tensorShape": {"dim": [{"size": "7"}, {"size": "7"}, {"size": "128"}, {"size": "128"}]}}}}}, {"name": "StatefulPartitionedCall/gomoku_net_1/sequential_54/sequential_43/residual_block_15/sequential_41/conv2d_39/Conv2D_bn_offset", "op": "Const", "attr": {"value": {"tensor": {"dtype": "DT_FLOAT", "tensorShape": {"dim": [{"size": "128"}]}}}, "dtype": {"type": "DT_FLOAT"}}}, {"name": "StatefulPartitionedCall/gomoku_net_1/sequential_54/sequential_43/residual_block_15/sequential_41/conv2d_40/Conv2D_weights", "op": "Const", "attr": {"value": {"tensor": {"dtype": "DT_FLOAT", "tensorShape": {"dim": [{"size": "7"}, {"size": "7"}, {"size": "128"}, {"size": "128"}]}}}, "dtype": {"type": "DT_FLOAT"}}}, {"name": "StatefulPartitionedCall/gomoku_net_1/sequential_54/sequential_53/residual_block_19/sequential_51/conv2d_49/Conv2D_weights", "op": "Const", "attr": {"dtype": {"type": "DT_FLOAT"}, "value": {"tensor": {"dtype": "DT_FLOAT", "tensorShape": {"dim": [{"size": "7"}, {"size": "7"}, {"size": "32"}, {"size": "32"}]}}}}}, {"name": "StatefulPartitionedCall/gomoku_net_1/sequential_54/sequential_43/residual_block_15/sequential_41/conv2d_40/Conv2D_bn_offset", "op": "Const", "attr": {"value": {"tensor": {"dtype": "DT_FLOAT", "tensorShape": {"dim": [{"size": "128"}]}}}, "dtype": {"type": "DT_FLOAT"}}}, {"name": "StatefulPartitionedCall/gomoku_net_1/sequential_54/sequential_48/residual_block_16/sequential_44/conv2d_41/Conv2D_weights", "op": "Const", "attr": {"dtype": {"type": "DT_FLOAT"}, "value": {"tensor": {"dtype": "DT_FLOAT", "tensorShape": {"dim": [{"size": "7"}, {"size": "7"}, {"size": "128"}, {"size": "64"}]}}}}}, {"name": "StatefulPartitionedCall/gomoku_net_1/sequential_54/sequential_48/residual_block_16/sequential_44/conv2d_41/Conv2D_bn_offset", "op": "Const", "attr": {"dtype": {"type": "DT_FLOAT"}, "value": {"tensor": {"dtype": "DT_FLOAT", "tensorShape": {"dim": [{"size": "64"}]}}}}}, {"name": "StatefulPartitionedCall/gomoku_net_1/sequential_54/sequential_53/residual_block_19/sequential_51/conv2d_49/Conv2D_bn_offset", "op": "Const", "attr": {"dtype": {"type": "DT_FLOAT"}, "value": {"tensor": {"dtype": "DT_FLOAT", "tensorShape": {"dim": [{"size": "32"}]}}}}}, {"name": "StatefulPartitionedCall/gomoku_net_1/sequential_54/sequential_48/residual_block_16/sequential_45/conv2d_43/Conv2D_weights", "op": "Const", "attr": {"value": {"tensor": {"dtype": "DT_FLOAT", "tensorShape": {"dim": [{"size": "1"}, {"size": "1"}, {"size": "128"}, {"size": "64"}]}}}, "dtype": {"type": "DT_FLOAT"}}}, {"name": "StatefulPartitionedCall/gomoku_net_1/sequential_54/sequential_48/residual_block_16/sequential_45/conv2d_43/Conv2D_bn_offset", "op": "Const", "attr": {"value": {"tensor": {"dtype": "DT_FLOAT", "tensorShape": {"dim": [{"size": "64"}]}}}, "dtype": {"type": "DT_FLOAT"}}}, {"name": "StatefulPartitionedCall/gomoku_net_1/sequential_54/sequential_48/residual_block_16/sequential_44/conv2d_42/Conv2D_weights", "op": "Const", "attr": {"dtype": {"type": "DT_FLOAT"}, "value": {"tensor": {"dtype": "DT_FLOAT", "tensorShape": {"dim": [{"size": "7"}, {"size": "7"}, {"size": "64"}, {"size": "64"}]}}}}}, {"name": "StatefulPartitionedCall/gomoku_net_1/sequential_54/sequential_48/residual_block_16/sequential_44/conv2d_42/Conv2D_bn_offset", "op": "Const", "attr": {"value": {"tensor": {"dtype": "DT_FLOAT", "tensorShape": {"dim": [{"size": "64"}]}}}, "dtype": {"type": "DT_FLOAT"}}}, {"name": "StatefulPartitionedCall/gomoku_net_1/sequential_54/sequential_48/residual_block_17/sequential_46/conv2d_44/Conv2D_weights", "op": "Const", "attr": {"dtype": {"type": "DT_FLOAT"}, "value": {"tensor": {"dtype": "DT_FLOAT", "tensorShape": {"dim": [{"size": "7"}, {"size": "7"}, {"size": "64"}, {"size": "64"}]}}}}}, {"name": "StatefulPartitionedCall/gomoku_net_1/sequential_54/sequential_53/residual_block_19/sequential_51/conv2d_50/Conv2D_weights", "op": "Const", "attr": {"dtype": {"type": "DT_FLOAT"}, "value": {"tensor": {"dtype": "DT_FLOAT", "tensorShape": {"dim": [{"size": "7"}, {"size": "7"}, {"size": "32"}, {"size": "32"}]}}}}}, {"name": "StatefulPartitionedCall/gomoku_net_1/sequential_54/sequential_48/residual_block_17/sequential_46/conv2d_44/Conv2D_bn_offset", "op": "Const", "attr": {"dtype": {"type": "DT_FLOAT"}, "value": {"tensor": {"dtype": "DT_FLOAT", "tensorShape": {"dim": [{"size": "64"}]}}}}}, {"name": "StatefulPartitionedCall/gomoku_net_1/sequential_28/re_lu_21/Relu", "op": "_FusedConv2D", "input": ["input_1", "StatefulPartitionedCall/gomoku_net_1/sequential_28/conv2d_26/Conv2D_weights", "StatefulPartitionedCall/gomoku_net_1/sequential_28/conv2d_26/Conv2D_bn_offset"], "device": "/device:CPU:0", "attr": {"T": {"type": "DT_FLOAT"}, "epsilon": {"f": 0.0}, "data_format": {"s": "TkhXQw=="}, "padding": {"s": "U0FNRQ=="}, "use_cudnn_on_gpu": {"b": true}, "strides": {"list": {"i": ["1", "1", "1", "1"]}}, "num_args": {"i": "1"}, "explicit_paddings": {"list": {}}, "fused_ops": {"list": {"s": ["Qmlhc0FkZA==", "UmVsdQ=="]}}, "dilations": {"list": {"i": ["1", "1", "1", "1"]}}}}, {"name": "StatefulPartitionedCall/gomoku_net_1/sequential_54/sequential_33/residual_block_10/sequential_29/re_lu_22/Relu", "op": "_FusedConv2D", "input": ["StatefulPartitionedCall/gomoku_net_1/sequential_28/re_lu_21/Relu", "StatefulPartitionedCall/gomoku_net_1/sequential_54/sequential_33/residual_block_10/sequential_29/conv2d_27/Conv2D_weights", "StatefulPartitionedCall/gomoku_net_1/sequential_54/sequential_33/residual_block_10/sequential_29/conv2d_27/Conv2D_bn_offset"], "device": "/device:CPU:0", "attr": {"strides": {"list": {"i": ["1", "1", "1", "1"]}}, "use_cudnn_on_gpu": {"b": true}, "T": {"type": "DT_FLOAT"}, "dilations": {"list": {"i": ["1", "1", "1", "1"]}}, "fused_ops": {"list": {"s": ["Qmlhc0FkZA==", "UmVsdQ=="]}}, "epsilon": {"f": 0.0}, "num_args": {"i": "1"}, "explicit_paddings": {"list": {}}, "padding": {"s": "U0FNRQ=="}, "data_format": {"s": "TkhXQw=="}}}, {"name": "StatefulPartitionedCall/gomoku_net_1/sequential_54/sequential_33/residual_block_10/sequential_30/batch_normalization_28/FusedBatchNormV3", "op": "_FusedConv2D", "input": ["StatefulPartitionedCall/gomoku_net_1/sequential_28/re_lu_21/Relu", "StatefulPartitionedCall/gomoku_net_1/sequential_54/sequential_33/residual_block_10/sequential_30/conv2d_29/Conv2D_weights", "StatefulPartitionedCall/gomoku_net_1/sequential_54/sequential_33/residual_block_10/sequential_30/conv2d_29/Conv2D_bn_offset"], "device": "/device:CPU:0", "attr": {"data_format": {"s": "TkhXQw=="}, "T": {"type": "DT_FLOAT"}, "strides": {"list": {"i": ["1", "1", "1", "1"]}}, "fused_ops": {"list": {"s": ["Qmlhc0FkZA=="]}}, "padding": {"s": "U0FNRQ=="}, "use_cudnn_on_gpu": {"b": true}, "dilations": {"list": {"i": ["1", "1", "1", "1"]}}, "num_args": {"i": "1"}, "epsilon": {"f": 0.0}, "explicit_paddings": {"list": {}}}}, {"name": "StatefulPartitionedCall/gomoku_net_1/sequential_54/sequential_33/residual_block_10/sequential_29/batch_normalization_27/FusedBatchNormV3", "op": "_FusedConv2D", "input": ["StatefulPartitionedCall/gomoku_net_1/sequential_54/sequential_33/residual_block_10/sequential_29/re_lu_22/Relu", "StatefulPartitionedCall/gomoku_net_1/sequential_54/sequential_33/residual_block_10/sequential_29/conv2d_28/Conv2D_weights", "StatefulPartitionedCall/gomoku_net_1/sequential_54/sequential_33/residual_block_10/sequential_29/conv2d_28/Conv2D_bn_offset"], "device": "/device:CPU:0", "attr": {"padding": {"s": "U0FNRQ=="}, "strides": {"list": {"i": ["1", "1", "1", "1"]}}, "T": {"type": "DT_FLOAT"}, "use_cudnn_on_gpu": {"b": true}, "fused_ops": {"list": {"s": ["Qmlhc0FkZA=="]}}, "epsilon": {"f": 0.0}, "num_args": {"i": "1"}, "dilations": {"list": {"i": ["1", "1", "1", "1"]}}, "data_format": {"s": "TkhXQw=="}, "explicit_paddings": {"list": {}}}}, {"name": "StatefulPartitionedCall/gomoku_net_1/sequential_54/sequential_33/residual_block_10/add", "op": "AddV2", "input": ["StatefulPartitionedCall/gomoku_net_1/sequential_54/sequential_33/residual_block_10/sequential_29/batch_normalization_27/FusedBatchNormV3", "StatefulPartitionedCall/gomoku_net_1/sequential_54/sequential_33/residual_block_10/sequential_30/batch_normalization_28/FusedBatchNormV3"], "attr": {"T": {"type": "DT_FLOAT"}}}, {"name": "StatefulPartitionedCall/gomoku_net_1/sequential_54/sequential_33/residual_block_10/re_lu_23/Relu", "op": "Relu", "input": ["StatefulPartitionedCall/gomoku_net_1/sequential_54/sequential_33/residual_block_10/add"], "attr": {"T": {"type": "DT_FLOAT"}}}, {"name": "StatefulPartitionedCall/gomoku_net_1/sequential_54/sequential_33/residual_block_11/sequential_31/re_lu_24/Relu", "op": "_FusedConv2D", "input": ["StatefulPartitionedCall/gomoku_net_1/sequential_54/sequential_33/residual_block_10/re_lu_23/Relu", "StatefulPartitionedCall/gomoku_net_1/sequential_54/sequential_33/residual_block_11/sequential_31/conv2d_30/Conv2D_weights", "StatefulPartitionedCall/gomoku_net_1/sequential_54/sequential_33/residual_block_11/sequential_31/conv2d_30/Conv2D_bn_offset"], "device": "/device:CPU:0", "attr": {"fused_ops": {"list": {"s": ["Qmlhc0FkZA==", "UmVsdQ=="]}}, "explicit_paddings": {"list": {}}, "epsilon": {"f": 0.0}, "strides": {"list": {"i": ["1", "1", "1", "1"]}}, "padding": {"s": "U0FNRQ=="}, "dilations": {"list": {"i": ["1", "1", "1", "1"]}}, "data_format": {"s": "TkhXQw=="}, "T": {"type": "DT_FLOAT"}, "num_args": {"i": "1"}, "use_cudnn_on_gpu": {"b": true}}}, {"name": "StatefulPartitionedCall/gomoku_net_1/sequential_54/sequential_33/residual_block_11/sequential_31/batch_normalization_30/FusedBatchNormV3", "op": "_FusedConv2D", "input": ["StatefulPartitionedCall/gomoku_net_1/sequential_54/sequential_33/residual_block_11/sequential_31/re_lu_24/Relu", "StatefulPartitionedCall/gomoku_net_1/sequential_54/sequential_33/residual_block_11/sequential_31/conv2d_31/Conv2D_weights", "StatefulPartitionedCall/gomoku_net_1/sequential_54/sequential_33/residual_block_11/sequential_31/conv2d_31/Conv2D_bn_offset"], "device": "/device:CPU:0", "attr": {"padding": {"s": "U0FNRQ=="}, "dilations": {"list": {"i": ["1", "1", "1", "1"]}}, "fused_ops": {"list": {"s": ["Qmlhc0FkZA=="]}}, "epsilon": {"f": 0.0}, "use_cudnn_on_gpu": {"b": true}, "num_args": {"i": "1"}, "data_format": {"s": "TkhXQw=="}, "strides": {"list": {"i": ["1", "1", "1", "1"]}}, "explicit_paddings": {"list": {}}, "T": {"type": "DT_FLOAT"}}}, {"name": "StatefulPartitionedCall/gomoku_net_1/sequential_54/sequential_33/residual_block_11/add", "op": "AddV2", "input": ["StatefulPartitionedCall/gomoku_net_1/sequential_54/sequential_33/residual_block_11/sequential_31/batch_normalization_30/FusedBatchNormV3", "StatefulPartitionedCall/gomoku_net_1/sequential_54/sequential_33/residual_block_10/re_lu_23/Relu"], "attr": {"T": {"type": "DT_FLOAT"}}}, {"name": "StatefulPartitionedCall/gomoku_net_1/sequential_54/sequential_33/residual_block_11/re_lu_25/Relu", "op": "Relu", "input": ["StatefulPartitionedCall/gomoku_net_1/sequential_54/sequential_33/residual_block_11/add"], "attr": {"T": {"type": "DT_FLOAT"}}}, {"name": "StatefulPartitionedCall/gomoku_net_1/sequential_54/sequential_38/residual_block_12/sequential_34/re_lu_26/Relu", "op": "_FusedConv2D", "input": ["StatefulPartitionedCall/gomoku_net_1/sequential_54/sequential_33/residual_block_11/re_lu_25/Relu", "StatefulPartitionedCall/gomoku_net_1/sequential_54/sequential_38/residual_block_12/sequential_34/conv2d_32/Conv2D_weights", "StatefulPartitionedCall/gomoku_net_1/sequential_54/sequential_38/residual_block_12/sequential_34/conv2d_32/Conv2D_bn_offset"], "device": "/device:CPU:0", "attr": {"dilations": {"list": {"i": ["1", "1", "1", "1"]}}, "data_format": {"s": "TkhXQw=="}, "strides": {"list": {"i": ["1", "1", "1", "1"]}}, "num_args": {"i": "1"}, "padding": {"s": "U0FNRQ=="}, "use_cudnn_on_gpu": {"b": true}, "fused_ops": {"list": {"s": ["Qmlhc0FkZA==", "UmVsdQ=="]}}, "T": {"type": "DT_FLOAT"}, "epsilon": {"f": 0.0}, "explicit_paddings": {"list": {}}}}, {"name": "StatefulPartitionedCall/gomoku_net_1/sequential_54/sequential_38/residual_block_12/sequential_35/batch_normalization_33/FusedBatchNormV3", "op": "_FusedConv2D", "input": ["StatefulPartitionedCall/gomoku_net_1/sequential_54/sequential_33/residual_block_11/re_lu_25/Relu", "StatefulPartitionedCall/gomoku_net_1/sequential_54/sequential_38/residual_block_12/sequential_35/conv2d_34/Conv2D_weights", "StatefulPartitionedCall/gomoku_net_1/sequential_54/sequential_38/residual_block_12/sequential_35/conv2d_34/Conv2D_bn_offset"], "device": "/device:CPU:0", "attr": {"num_args": {"i": "1"}, "use_cudnn_on_gpu": {"b": true}, "padding": {"s": "U0FNRQ=="}, "explicit_paddings": {"list": {}}, "epsilon": {"f": 0.0}, "dilations": {"list": {"i": ["1", "1", "1", "1"]}}, "T": {"type": "DT_FLOAT"}, "strides": {"list": {"i": ["1", "1", "1", "1"]}}, "data_format": {"s": "TkhXQw=="}, "fused_ops": {"list": {"s": ["Qmlhc0FkZA=="]}}}}, {"name": "StatefulPartitionedCall/gomoku_net_1/sequential_54/sequential_38/residual_block_12/sequential_34/batch_normalization_32/FusedBatchNormV3", "op": "_FusedConv2D", "input": ["StatefulPartitionedCall/gomoku_net_1/sequential_54/sequential_38/residual_block_12/sequential_34/re_lu_26/Relu", "StatefulPartitionedCall/gomoku_net_1/sequential_54/sequential_38/residual_block_12/sequential_34/conv2d_33/Conv2D_weights", "StatefulPartitionedCall/gomoku_net_1/sequential_54/sequential_38/residual_block_12/sequential_34/conv2d_33/Conv2D_bn_offset"], "device": "/device:CPU:0", "attr": {"fused_ops": {"list": {"s": ["Qmlhc0FkZA=="]}}, "dilations": {"list": {"i": ["1", "1", "1", "1"]}}, "epsilon": {"f": 0.0}, "use_cudnn_on_gpu": {"b": true}, "T": {"type": "DT_FLOAT"}, "num_args": {"i": "1"}, "data_format": {"s": "TkhXQw=="}, "strides": {"list": {"i": ["1", "1", "1", "1"]}}, "padding": {"s": "U0FNRQ=="}, "explicit_paddings": {"list": {}}}}, {"name": "StatefulPartitionedCall/gomoku_net_1/sequential_54/sequential_38/residual_block_12/add", "op": "AddV2", "input": ["StatefulPartitionedCall/gomoku_net_1/sequential_54/sequential_38/residual_block_12/sequential_34/batch_normalization_32/FusedBatchNormV3", "StatefulPartitionedCall/gomoku_net_1/sequential_54/sequential_38/residual_block_12/sequential_35/batch_normalization_33/FusedBatchNormV3"], "attr": {"T": {"type": "DT_FLOAT"}}}, {"name": "StatefulPartitionedCall/gomoku_net_1/sequential_54/sequential_38/residual_block_12/re_lu_27/Relu", "op": "Relu", "input": ["StatefulPartitionedCall/gomoku_net_1/sequential_54/sequential_38/residual_block_12/add"], "attr": {"T": {"type": "DT_FLOAT"}}}, {"name": "StatefulPartitionedCall/gomoku_net_1/sequential_54/sequential_38/residual_block_13/sequential_36/re_lu_28/Relu", "op": "_FusedConv2D", "input": ["StatefulPartitionedCall/gomoku_net_1/sequential_54/sequential_38/residual_block_12/re_lu_27/Relu", "StatefulPartitionedCall/gomoku_net_1/sequential_54/sequential_38/residual_block_13/sequential_36/conv2d_35/Conv2D_weights", "StatefulPartitionedCall/gomoku_net_1/sequential_54/sequential_38/residual_block_13/sequential_36/conv2d_35/Conv2D_bn_offset"], "device": "/device:CPU:0", "attr": {"dilations": {"list": {"i": ["1", "1", "1", "1"]}}, "num_args": {"i": "1"}, "strides": {"list": {"i": ["1", "1", "1", "1"]}}, "data_format": {"s": "TkhXQw=="}, "explicit_paddings": {"list": {}}, "fused_ops": {"list": {"s": ["Qmlhc0FkZA==", "UmVsdQ=="]}}, "padding": {"s": "U0FNRQ=="}, "T": {"type": "DT_FLOAT"}, "use_cudnn_on_gpu": {"b": true}, "epsilon": {"f": 0.0}}}, {"name": "StatefulPartitionedCall/gomoku_net_1/sequential_54/sequential_38/residual_block_13/sequential_36/batch_normalization_35/FusedBatchNormV3", "op": "_FusedConv2D", "input": ["StatefulPartitionedCall/gomoku_net_1/sequential_54/sequential_38/residual_block_13/sequential_36/re_lu_28/Relu", "StatefulPartitionedCall/gomoku_net_1/sequential_54/sequential_38/residual_block_13/sequential_36/conv2d_36/Conv2D_weights", "StatefulPartitionedCall/gomoku_net_1/sequential_54/sequential_38/residual_block_13/sequential_36/conv2d_36/Conv2D_bn_offset"], "device": "/device:CPU:0", "attr": {"use_cudnn_on_gpu": {"b": true}, "dilations": {"list": {"i": ["1", "1", "1", "1"]}}, "strides": {"list": {"i": ["1", "1", "1", "1"]}}, "num_args": {"i": "1"}, "fused_ops": {"list": {"s": ["Qmlhc0FkZA=="]}}, "padding": {"s": "U0FNRQ=="}, "explicit_paddings": {"list": {}}, "epsilon": {"f": 0.0}, "T": {"type": "DT_FLOAT"}, "data_format": {"s": "TkhXQw=="}}}, {"name": "StatefulPartitionedCall/gomoku_net_1/sequential_54/sequential_38/residual_block_13/add", "op": "AddV2", "input": ["StatefulPartitionedCall/gomoku_net_1/sequential_54/sequential_38/residual_block_13/sequential_36/batch_normalization_35/FusedBatchNormV3", "StatefulPartitionedCall/gomoku_net_1/sequential_54/sequential_38/residual_block_12/re_lu_27/Relu"], "attr": {"T": {"type": "DT_FLOAT"}}}, {"name": "StatefulPartitionedCall/gomoku_net_1/sequential_54/sequential_38/residual_block_13/re_lu_29/Relu", "op": "Relu", "input": ["StatefulPartitionedCall/gomoku_net_1/sequential_54/sequential_38/residual_block_13/add"], "attr": {"T": {"type": "DT_FLOAT"}}}, {"name": "StatefulPartitionedCall/gomoku_net_1/sequential_54/sequential_43/residual_block_14/sequential_39/re_lu_30/Relu", "op": "_FusedConv2D", "input": ["StatefulPartitionedCall/gomoku_net_1/sequential_54/sequential_38/residual_block_13/re_lu_29/Relu", "StatefulPartitionedCall/gomoku_net_1/sequential_54/sequential_43/residual_block_14/sequential_39/conv2d_37/Conv2D_weights", "StatefulPartitionedCall/gomoku_net_1/sequential_54/sequential_43/residual_block_14/sequential_39/conv2d_37/Conv2D_bn_offset"], "device": "/device:CPU:0", "attr": {"num_args": {"i": "1"}, "explicit_paddings": {"list": {}}, "fused_ops": {"list": {"s": ["Qmlhc0FkZA==", "UmVsdQ=="]}}, "epsilon": {"f": 0.0}, "padding": {"s": "U0FNRQ=="}, "data_format": {"s": "TkhXQw=="}, "use_cudnn_on_gpu": {"b": true}, "dilations": {"list": {"i": ["1", "1", "1", "1"]}}, "strides": {"list": {"i": ["1", "1", "1", "1"]}}, "T": {"type": "DT_FLOAT"}}}, {"name": "StatefulPartitionedCall/gomoku_net_1/sequential_54/sequential_43/residual_block_14/sequential_39/batch_normalization_37/FusedBatchNormV3", "op": "_FusedConv2D", "input": ["StatefulPartitionedCall/gomoku_net_1/sequential_54/sequential_43/residual_block_14/sequential_39/re_lu_30/Relu", "StatefulPartitionedCall/gomoku_net_1/sequential_54/sequential_43/residual_block_14/sequential_39/conv2d_38/Conv2D_weights", "StatefulPartitionedCall/gomoku_net_1/sequential_54/sequential_43/residual_block_14/sequential_39/conv2d_38/Conv2D_bn_offset"], "device": "/device:CPU:0", "attr": {"num_args": {"i": "1"}, "epsilon": {"f": 0.0}, "fused_ops": {"list": {"s": ["Qmlhc0FkZA=="]}}, "dilations": {"list": {"i": ["1", "1", "1", "1"]}}, "strides": {"list": {"i": ["1", "1", "1", "1"]}}, "T": {"type": "DT_FLOAT"}, "padding": {"s": "U0FNRQ=="}, "data_format": {"s": "TkhXQw=="}, "use_cudnn_on_gpu": {"b": true}, "explicit_paddings": {"list": {}}}}, {"name": "StatefulPartitionedCall/gomoku_net_1/sequential_54/sequential_43/residual_block_14/add", "op": "AddV2", "input": ["StatefulPartitionedCall/gomoku_net_1/sequential_54/sequential_43/residual_block_14/sequential_39/batch_normalization_37/FusedBatchNormV3", "StatefulPartitionedCall/gomoku_net_1/sequential_54/sequential_38/residual_block_13/re_lu_29/Relu"], "attr": {"T": {"type": "DT_FLOAT"}}}, {"name": "StatefulPartitionedCall/gomoku_net_1/sequential_54/sequential_43/residual_block_14/re_lu_31/Relu", "op": "Relu", "input": ["StatefulPartitionedCall/gomoku_net_1/sequential_54/sequential_43/residual_block_14/add"], "attr": {"T": {"type": "DT_FLOAT"}}}, {"name": "StatefulPartitionedCall/gomoku_net_1/sequential_54/sequential_43/residual_block_15/sequential_41/re_lu_32/Relu", "op": "_FusedConv2D", "input": ["StatefulPartitionedCall/gomoku_net_1/sequential_54/sequential_43/residual_block_14/re_lu_31/Relu", "StatefulPartitionedCall/gomoku_net_1/sequential_54/sequential_43/residual_block_15/sequential_41/conv2d_39/Conv2D_weights", "StatefulPartitionedCall/gomoku_net_1/sequential_54/sequential_43/residual_block_15/sequential_41/conv2d_39/Conv2D_bn_offset"], "device": "/device:CPU:0", "attr": {"epsilon": {"f": 0.0}, "T": {"type": "DT_FLOAT"}, "dilations": {"list": {"i": ["1", "1", "1", "1"]}}, "use_cudnn_on_gpu": {"b": true}, "data_format": {"s": "TkhXQw=="}, "num_args": {"i": "1"}, "fused_ops": {"list": {"s": ["Qmlhc0FkZA==", "UmVsdQ=="]}}, "padding": {"s": "U0FNRQ=="}, "strides": {"list": {"i": ["1", "1", "1", "1"]}}, "explicit_paddings": {"list": {}}}}, {"name": "StatefulPartitionedCall/gomoku_net_1/sequential_54/sequential_43/residual_block_15/sequential_41/batch_normalization_39/FusedBatchNormV3", "op": "_FusedConv2D", "input": ["StatefulPartitionedCall/gomoku_net_1/sequential_54/sequential_43/residual_block_15/sequential_41/re_lu_32/Relu", "StatefulPartitionedCall/gomoku_net_1/sequential_54/sequential_43/residual_block_15/sequential_41/conv2d_40/Conv2D_weights", "StatefulPartitionedCall/gomoku_net_1/sequential_54/sequential_43/residual_block_15/sequential_41/conv2d_40/Conv2D_bn_offset"], "device": "/device:CPU:0", "attr": {"fused_ops": {"list": {"s": ["Qmlhc0FkZA=="]}}, "epsilon": {"f": 0.0}, "explicit_paddings": {"list": {}}, "data_format": {"s": "TkhXQw=="}, "T": {"type": "DT_FLOAT"}, "dilations": {"list": {"i": ["1", "1", "1", "1"]}}, "strides": {"list": {"i": ["1", "1", "1", "1"]}}, "padding": {"s": "U0FNRQ=="}, "use_cudnn_on_gpu": {"b": true}, "num_args": {"i": "1"}}}, {"name": "StatefulPartitionedCall/gomoku_net_1/sequential_54/sequential_43/residual_block_15/add", "op": "AddV2", "input": ["StatefulPartitionedCall/gomoku_net_1/sequential_54/sequential_43/residual_block_15/sequential_41/batch_normalization_39/FusedBatchNormV3", "StatefulPartitionedCall/gomoku_net_1/sequential_54/sequential_43/residual_block_14/re_lu_31/Relu"], "attr": {"T": {"type": "DT_FLOAT"}}}, {"name": "StatefulPartitionedCall/gomoku_net_1/sequential_54/sequential_43/residual_block_15/re_lu_33/Relu", "op": "Relu", "input": ["StatefulPartitionedCall/gomoku_net_1/sequential_54/sequential_43/residual_block_15/add"], "attr": {"T": {"type": "DT_FLOAT"}}}, {"name": "StatefulPartitionedCall/gomoku_net_1/sequential_54/sequential_48/residual_block_16/sequential_44/re_lu_34/Relu", "op": "_FusedConv2D", "input": ["StatefulPartitionedCall/gomoku_net_1/sequential_54/sequential_43/residual_block_15/re_lu_33/Relu", "StatefulPartitionedCall/gomoku_net_1/sequential_54/sequential_48/residual_block_16/sequential_44/conv2d_41/Conv2D_weights", "StatefulPartitionedCall/gomoku_net_1/sequential_54/sequential_48/residual_block_16/sequential_44/conv2d_41/Conv2D_bn_offset"], "device": "/device:CPU:0", "attr": {"num_args": {"i": "1"}, "padding": {"s": "U0FNRQ=="}, "explicit_paddings": {"list": {}}, "T": {"type": "DT_FLOAT"}, "fused_ops": {"list": {"s": ["Qmlhc0FkZA==", "UmVsdQ=="]}}, "epsilon": {"f": 0.0}, "strides": {"list": {"i": ["1", "1", "1", "1"]}}, "dilations": {"list": {"i": ["1", "1", "1", "1"]}}, "data_format": {"s": "TkhXQw=="}, "use_cudnn_on_gpu": {"b": true}}}, {"name": "StatefulPartitionedCall/gomoku_net_1/sequential_54/sequential_48/residual_block_16/sequential_45/batch_normalization_42/FusedBatchNormV3", "op": "_FusedConv2D", "input": ["StatefulPartitionedCall/gomoku_net_1/sequential_54/sequential_43/residual_block_15/re_lu_33/Relu", "StatefulPartitionedCall/gomoku_net_1/sequential_54/sequential_48/residual_block_16/sequential_45/conv2d_43/Conv2D_weights", "StatefulPartitionedCall/gomoku_net_1/sequential_54/sequential_48/residual_block_16/sequential_45/conv2d_43/Conv2D_bn_offset"], "device": "/device:CPU:0", "attr": {"epsilon": {"f": 0.0}, "T": {"type": "DT_FLOAT"}, "data_format": {"s": "TkhXQw=="}, "dilations": {"list": {"i": ["1", "1", "1", "1"]}}, "use_cudnn_on_gpu": {"b": true}, "num_args": {"i": "1"}, "strides": {"list": {"i": ["1", "1", "1", "1"]}}, "fused_ops": {"list": {"s": ["Qmlhc0FkZA=="]}}, "padding": {"s": "U0FNRQ=="}, "explicit_paddings": {"list": {}}}}, {"name": "StatefulPartitionedCall/gomoku_net_1/sequential_54/sequential_48/residual_block_16/sequential_44/batch_normalization_41/FusedBatchNormV3", "op": "_FusedConv2D", "input": ["StatefulPartitionedCall/gomoku_net_1/sequential_54/sequential_48/residual_block_16/sequential_44/re_lu_34/Relu", "StatefulPartitionedCall/gomoku_net_1/sequential_54/sequential_48/residual_block_16/sequential_44/conv2d_42/Conv2D_weights", "StatefulPartitionedCall/gomoku_net_1/sequential_54/sequential_48/residual_block_16/sequential_44/conv2d_42/Conv2D_bn_offset"], "device": "/device:CPU:0", "attr": {"use_cudnn_on_gpu": {"b": true}, "fused_ops": {"list": {"s": ["Qmlhc0FkZA=="]}}, "padding": {"s": "U0FNRQ=="}, "num_args": {"i": "1"}, "strides": {"list": {"i": ["1", "1", "1", "1"]}}, "explicit_paddings": {"list": {}}, "epsilon": {"f": 0.0}, "dilations": {"list": {"i": ["1", "1", "1", "1"]}}, "data_format": {"s": "TkhXQw=="}, "T": {"type": "DT_FLOAT"}}}, {"name": "StatefulPartitionedCall/gomoku_net_1/sequential_54/sequential_48/residual_block_16/add", "op": "AddV2", "input": ["StatefulPartitionedCall/gomoku_net_1/sequential_54/sequential_48/residual_block_16/sequential_44/batch_normalization_41/FusedBatchNormV3", "StatefulPartitionedCall/gomoku_net_1/sequential_54/sequential_48/residual_block_16/sequential_45/batch_normalization_42/FusedBatchNormV3"], "attr": {"T": {"type": "DT_FLOAT"}}}, {"name": "StatefulPartitionedCall/gomoku_net_1/sequential_54/sequential_48/residual_block_16/re_lu_35/Relu", "op": "Relu", "input": ["StatefulPartitionedCall/gomoku_net_1/sequential_54/sequential_48/residual_block_16/add"], "attr": {"T": {"type": "DT_FLOAT"}}}, {"name": "StatefulPartitionedCall/gomoku_net_1/sequential_54/sequential_48/residual_block_17/sequential_46/re_lu_36/Relu", "op": "_FusedConv2D", "input": ["StatefulPartitionedCall/gomoku_net_1/sequential_54/sequential_48/residual_block_16/re_lu_35/Relu", "StatefulPartitionedCall/gomoku_net_1/sequential_54/sequential_48/residual_block_17/sequential_46/conv2d_44/Conv2D_weights", "StatefulPartitionedCall/gomoku_net_1/sequential_54/sequential_48/residual_block_17/sequential_46/conv2d_44/Conv2D_bn_offset"], "device": "/device:CPU:0", "attr": {"epsilon": {"f": 0.0}, "dilations": {"list": {"i": ["1", "1", "1", "1"]}}, "data_format": {"s": "TkhXQw=="}, "padding": {"s": "U0FNRQ=="}, "T": {"type": "DT_FLOAT"}, "use_cudnn_on_gpu": {"b": true}, "fused_ops": {"list": {"s": ["Qmlhc0FkZA==", "UmVsdQ=="]}}, "strides": {"list": {"i": ["1", "1", "1", "1"]}}, "explicit_paddings": {"list": {}}, "num_args": {"i": "1"}}}, {"name": "StatefulPartitionedCall/gomoku_net_1/sequential_54/sequential_48/residual_block_17/sequential_46/batch_normalization_44/FusedBatchNormV3", "op": "_FusedConv2D", "input": ["StatefulPartitionedCall/gomoku_net_1/sequential_54/sequential_48/residual_block_17/sequential_46/re_lu_36/Relu", "StatefulPartitionedCall/gomoku_net_1/sequential_54/sequential_48/residual_block_17/sequential_46/conv2d_45/Conv2D_weights", "StatefulPartitionedCall/gomoku_net_1/sequential_54/sequential_48/residual_block_17/sequential_46/conv2d_45/Conv2D_bn_offset"], "device": "/device:CPU:0", "attr": {"num_args": {"i": "1"}, "fused_ops": {"list": {"s": ["Qmlhc0FkZA=="]}}, "T": {"type": "DT_FLOAT"}, "padding": {"s": "U0FNRQ=="}, "epsilon": {"f": 0.0}, "strides": {"list": {"i": ["1", "1", "1", "1"]}}, "dilations": {"list": {"i": ["1", "1", "1", "1"]}}, "use_cudnn_on_gpu": {"b": true}, "data_format": {"s": "TkhXQw=="}, "explicit_paddings": {"list": {}}}}, {"name": "StatefulPartitionedCall/gomoku_net_1/sequential_54/sequential_48/residual_block_17/add", "op": "AddV2", "input": ["StatefulPartitionedCall/gomoku_net_1/sequential_54/sequential_48/residual_block_17/sequential_46/batch_normalization_44/FusedBatchNormV3", "StatefulPartitionedCall/gomoku_net_1/sequential_54/sequential_48/residual_block_16/re_lu_35/Relu"], "attr": {"T": {"type": "DT_FLOAT"}}}, {"name": "StatefulPartitionedCall/gomoku_net_1/sequential_54/sequential_48/residual_block_17/re_lu_37/Relu", "op": "Relu", "input": ["StatefulPartitionedCall/gomoku_net_1/sequential_54/sequential_48/residual_block_17/add"], "attr": {"T": {"type": "DT_FLOAT"}}}, {"name": "StatefulPartitionedCall/gomoku_net_1/sequential_54/sequential_53/residual_block_18/sequential_49/re_lu_38/Relu", "op": "_FusedConv2D", "input": ["StatefulPartitionedCall/gomoku_net_1/sequential_54/sequential_48/residual_block_17/re_lu_37/Relu", "StatefulPartitionedCall/gomoku_net_1/sequential_54/sequential_53/residual_block_18/sequential_49/conv2d_46/Conv2D_weights", "StatefulPartitionedCall/gomoku_net_1/sequential_54/sequential_53/residual_block_18/sequential_49/conv2d_46/Conv2D_bn_offset"], "device": "/device:CPU:0", "attr": {"data_format": {"s": "TkhXQw=="}, "dilations": {"list": {"i": ["1", "1", "1", "1"]}}, "T": {"type": "DT_FLOAT"}, "padding": {"s": "U0FNRQ=="}, "fused_ops": {"list": {"s": ["Qmlhc0FkZA==", "UmVsdQ=="]}}, "use_cudnn_on_gpu": {"b": true}, "strides": {"list": {"i": ["1", "1", "1", "1"]}}, "num_args": {"i": "1"}, "explicit_paddings": {"list": {}}, "epsilon": {"f": 0.0}}}, {"name": "StatefulPartitionedCall/gomoku_net_1/sequential_54/sequential_53/residual_block_18/sequential_50/batch_normalization_47/FusedBatchNormV3", "op": "_FusedConv2D", "input": ["StatefulPartitionedCall/gomoku_net_1/sequential_54/sequential_48/residual_block_17/re_lu_37/Relu", "StatefulPartitionedCall/gomoku_net_1/sequential_54/sequential_53/residual_block_18/sequential_50/conv2d_48/Conv2D_weights", "StatefulPartitionedCall/gomoku_net_1/sequential_54/sequential_53/residual_block_18/sequential_50/conv2d_48/Conv2D_bn_offset"], "device": "/device:CPU:0", "attr": {"T": {"type": "DT_FLOAT"}, "num_args": {"i": "1"}, "padding": {"s": "U0FNRQ=="}, "epsilon": {"f": 0.0}, "fused_ops": {"list": {"s": ["Qmlhc0FkZA=="]}}, "dilations": {"list": {"i": ["1", "1", "1", "1"]}}, "use_cudnn_on_gpu": {"b": true}, "data_format": {"s": "TkhXQw=="}, "strides": {"list": {"i": ["1", "1", "1", "1"]}}, "explicit_paddings": {"list": {}}}}, {"name": "StatefulPartitionedCall/gomoku_net_1/sequential_54/sequential_53/residual_block_18/sequential_49/batch_normalization_46/FusedBatchNormV3", "op": "_FusedConv2D", "input": ["StatefulPartitionedCall/gomoku_net_1/sequential_54/sequential_53/residual_block_18/sequential_49/re_lu_38/Relu", "StatefulPartitionedCall/gomoku_net_1/sequential_54/sequential_53/residual_block_18/sequential_49/conv2d_47/Conv2D_weights", "StatefulPartitionedCall/gomoku_net_1/sequential_54/sequential_53/residual_block_18/sequential_49/conv2d_47/Conv2D_bn_offset"], "device": "/device:CPU:0", "attr": {"data_format": {"s": "TkhXQw=="}, "dilations": {"list": {"i": ["1", "1", "1", "1"]}}, "strides": {"list": {"i": ["1", "1", "1", "1"]}}, "use_cudnn_on_gpu": {"b": true}, "T": {"type": "DT_FLOAT"}, "num_args": {"i": "1"}, "epsilon": {"f": 0.0}, "explicit_paddings": {"list": {}}, "fused_ops": {"list": {"s": ["Qmlhc0FkZA=="]}}, "padding": {"s": "U0FNRQ=="}}}, {"name": "StatefulPartitionedCall/gomoku_net_1/sequential_54/sequential_53/residual_block_18/add", "op": "AddV2", "input": ["StatefulPartitionedCall/gomoku_net_1/sequential_54/sequential_53/residual_block_18/sequential_49/batch_normalization_46/FusedBatchNormV3", "StatefulPartitionedCall/gomoku_net_1/sequential_54/sequential_53/residual_block_18/sequential_50/batch_normalization_47/FusedBatchNormV3"], "attr": {"T": {"type": "DT_FLOAT"}}}, {"name": "StatefulPartitionedCall/gomoku_net_1/sequential_54/sequential_53/residual_block_18/re_lu_39/Relu", "op": "Relu", "input": ["StatefulPartitionedCall/gomoku_net_1/sequential_54/sequential_53/residual_block_18/add"], "attr": {"T": {"type": "DT_FLOAT"}}}, {"name": "StatefulPartitionedCall/gomoku_net_1/sequential_54/sequential_53/residual_block_19/sequential_51/re_lu_40/Relu", "op": "_FusedConv2D", "input": ["StatefulPartitionedCall/gomoku_net_1/sequential_54/sequential_53/residual_block_18/re_lu_39/Relu", "StatefulPartitionedCall/gomoku_net_1/sequential_54/sequential_53/residual_block_19/sequential_51/conv2d_49/Conv2D_weights", "StatefulPartitionedCall/gomoku_net_1/sequential_54/sequential_53/residual_block_19/sequential_51/conv2d_49/Conv2D_bn_offset"], "device": "/device:CPU:0", "attr": {"num_args": {"i": "1"}, "T": {"type": "DT_FLOAT"}, "strides": {"list": {"i": ["1", "1", "1", "1"]}}, "explicit_paddings": {"list": {}}, "fused_ops": {"list": {"s": ["Qmlhc0FkZA==", "UmVsdQ=="]}}, "padding": {"s": "U0FNRQ=="}, "epsilon": {"f": 0.0}, "dilations": {"list": {"i": ["1", "1", "1", "1"]}}, "data_format": {"s": "TkhXQw=="}, "use_cudnn_on_gpu": {"b": true}}}, {"name": "StatefulPartitionedCall/gomoku_net_1/sequential_54/sequential_53/residual_block_19/sequential_51/batch_normalization_49/FusedBatchNormV3", "op": "_FusedConv2D", "input": ["StatefulPartitionedCall/gomoku_net_1/sequential_54/sequential_53/residual_block_19/sequential_51/re_lu_40/Relu", "StatefulPartitionedCall/gomoku_net_1/sequential_54/sequential_53/residual_block_19/sequential_51/conv2d_50/Conv2D_weights", "StatefulPartitionedCall/gomoku_net_1/sequential_54/sequential_53/residual_block_19/sequential_51/conv2d_50/Conv2D_bn_offset"], "device": "/device:CPU:0", "attr": {"epsilon": {"f": 0.0}, "use_cudnn_on_gpu": {"b": true}, "dilations": {"list": {"i": ["1", "1", "1", "1"]}}, "data_format": {"s": "TkhXQw=="}, "T": {"type": "DT_FLOAT"}, "num_args": {"i": "1"}, "strides": {"list": {"i": ["1", "1", "1", "1"]}}, "explicit_paddings": {"list": {}}, "fused_ops": {"list": {"s": ["Qmlhc0FkZA=="]}}, "padding": {"s": "U0FNRQ=="}}}, {"name": "StatefulPartitionedCall/gomoku_net_1/sequential_54/sequential_53/residual_block_19/add", "op": "AddV2", "input": ["StatefulPartitionedCall/gomoku_net_1/sequential_54/sequential_53/residual_block_19/sequential_51/batch_normalization_49/FusedBatchNormV3", "StatefulPartitionedCall/gomoku_net_1/sequential_54/sequential_53/residual_block_18/re_lu_39/Relu"], "attr": {"T": {"type": "DT_FLOAT"}}}, {"name": "StatefulPartitionedCall/gomoku_net_1/sequential_54/sequential_53/residual_block_19/re_lu_41/Relu", "op": "Relu", "input": ["StatefulPartitionedCall/gomoku_net_1/sequential_54/sequential_53/residual_block_19/add"], "attr": {"T": {"type": "DT_FLOAT"}}}, {"name": "StatefulPartitionedCall/gomoku_net_1/sequential_55/conv2d_51/Conv2D", "op": "Conv2D", "input": ["StatefulPartitionedCall/gomoku_net_1/sequential_54/sequential_53/residual_block_19/re_lu_41/Relu", "StatefulPartitionedCall/gomoku_net_1/sequential_55/conv2d_51/Conv2D/ReadVariableOp"], "device": "/device:CPU:0", "attr": {"T": {"type": "DT_FLOAT"}, "strides": {"list": {"i": ["1", "1", "1", "1"]}}, "explicit_paddings": {"list": {}}, "data_format": {"s": "TkhXQw=="}, "padding": {"s": "U0FNRQ=="}, "dilations": {"list": {"i": ["1", "1", "1", "1"]}}, "use_cudnn_on_gpu": {"b": true}}}, {"name": "StatefulPartitionedCall/gomoku_net_1/Reshape", "op": "Reshape", "input": ["StatefulPartitionedCall/gomoku_net_1/sequential_55/conv2d_51/Conv2D", "StatefulPartitionedCall/gomoku_net_1/Reshape/shape"], "attr": {"Tshape": {"type": "DT_INT32"}, "T": {"type": "DT_FLOAT"}}}, {"name": "StatefulPartitionedCall/gomoku_net_1/softmax_1/Softmax", "op": "Softmax", "input": ["StatefulPartitionedCall/gomoku_net_1/Reshape"], "attr": {"T": {"type": "DT_FLOAT"}}}, {"name": "Identity", "op": "Identity", "input": ["StatefulPartitionedCall/gomoku_net_1/softmax_1/Softmax"], "attr": {"T": {"type": "DT_FLOAT"}}}], "library": {}, "versions": {"producer": 808}}, "weightsManifest": [{"paths": ["group1-shard1of8.bin", "group1-shard2of8.bin", "group1-shard3of8.bin", "group1-shard4of8.bin", "group1-shard5of8.bin", "group1-shard6of8.bin", "group1-shard7of8.bin", "group1-shard8of8.bin"], "weights": [{"name": "StatefulPartitionedCall/gomoku_net_1/sequential_55/conv2d_51/Conv2D/ReadVariableOp", "shape": [1, 1, 32, 1], "dtype": "float32"}, {"name": "StatefulPartitionedCall/gomoku_net_1/Reshape/shape", "shape": [2], "dtype": "int32"}, {"name": "StatefulPartitionedCall/gomoku_net_1/sequential_28/conv2d_26/Conv2D_weights", "shape": [7, 7, 1, 32], "dtype": "float32"}, {"name": "StatefulPartitionedCall/gomoku_net_1/sequential_54/sequential_48/residual_block_17/sequential_46/conv2d_45/Conv2D_weights", "shape": [7, 7, 64, 64], "dtype": "float32"}, {"name": "StatefulPartitionedCall/gomoku_net_1/sequential_28/conv2d_26/Conv2D_bn_offset", "shape": [32], "dtype": "float32"}, {"name": "StatefulPartitionedCall/gomoku_net_1/sequential_54/sequential_53/residual_block_19/sequential_51/conv2d_50/Conv2D_bn_offset", "shape": [32], "dtype": "float32"}, {"name": "StatefulPartitionedCall/gomoku_net_1/sequential_54/sequential_33/residual_block_10/sequential_29/conv2d_27/Conv2D_weights", "shape": [7, 7, 32, 64], "dtype": "float32"}, {"name": "StatefulPartitionedCall/gomoku_net_1/sequential_54/sequential_48/residual_block_17/sequential_46/conv2d_45/Conv2D_bn_offset", "shape": [64], "dtype": "float32"}, {"name": "StatefulPartitionedCall/gomoku_net_1/sequential_54/sequential_33/residual_block_10/sequential_29/conv2d_27/Conv2D_bn_offset", "shape": [64], "dtype": "float32"}, {"name": "StatefulPartitionedCall/gomoku_net_1/sequential_54/sequential_33/residual_block_10/sequential_30/conv2d_29/Conv2D_weights", "shape": [1, 1, 32, 64], "dtype": "float32"}, {"name": "StatefulPartitionedCall/gomoku_net_1/sequential_54/sequential_33/residual_block_10/sequential_30/conv2d_29/Conv2D_bn_offset", "shape": [64], "dtype": "float32"}, {"name": "StatefulPartitionedCall/gomoku_net_1/sequential_54/sequential_33/residual_block_10/sequential_29/conv2d_28/Conv2D_weights", "shape": [7, 7, 64, 64], "dtype": "float32"}, {"name": "StatefulPartitionedCall/gomoku_net_1/sequential_54/sequential_33/residual_block_10/sequential_29/conv2d_28/Conv2D_bn_offset", "shape": [64], "dtype": "float32"}, {"name": "StatefulPartitionedCall/gomoku_net_1/sequential_54/sequential_33/residual_block_11/sequential_31/conv2d_30/Conv2D_weights", "shape": [7, 7, 64, 64], "dtype": "float32"}, {"name": "StatefulPartitionedCall/gomoku_net_1/sequential_54/sequential_53/residual_block_18/sequential_49/conv2d_46/Conv2D_weights", "shape": [7, 7, 64, 32], "dtype": "float32"}, {"name": "StatefulPartitionedCall/gomoku_net_1/sequential_54/sequential_33/residual_block_11/sequential_31/conv2d_30/Conv2D_bn_offset", "shape": [64], "dtype": "float32"}, {"name": "StatefulPartitionedCall/gomoku_net_1/sequential_54/sequential_33/residual_block_11/sequential_31/conv2d_31/Conv2D_weights", "shape": [7, 7, 64, 64], "dtype": "float32"}, {"name": "StatefulPartitionedCall/gomoku_net_1/sequential_54/sequential_53/residual_block_18/sequential_49/conv2d_46/Conv2D_bn_offset", "shape": [32], "dtype": "float32"}, {"name": "StatefulPartitionedCall/gomoku_net_1/sequential_54/sequential_33/residual_block_11/sequential_31/conv2d_31/Conv2D_bn_offset", "shape": [64], "dtype": "float32"}, {"name": "StatefulPartitionedCall/gomoku_net_1/sequential_54/sequential_38/residual_block_12/sequential_34/conv2d_32/Conv2D_weights", "shape": [7, 7, 64, 128], "dtype": "float32"}, {"name": "StatefulPartitionedCall/gomoku_net_1/sequential_54/sequential_38/residual_block_12/sequential_34/conv2d_32/Conv2D_bn_offset", "shape": [128], "dtype": "float32"}, {"name": "StatefulPartitionedCall/gomoku_net_1/sequential_54/sequential_38/residual_block_12/sequential_35/conv2d_34/Conv2D_weights", "shape": [1, 1, 64, 128], "dtype": "float32"}, {"name": "StatefulPartitionedCall/gomoku_net_1/sequential_54/sequential_53/residual_block_18/sequential_50/conv2d_48/Conv2D_weights", "shape": [1, 1, 64, 32], "dtype": "float32"}, {"name": "StatefulPartitionedCall/gomoku_net_1/sequential_54/sequential_38/residual_block_12/sequential_35/conv2d_34/Conv2D_bn_offset", "shape": [128], "dtype": "float32"}, {"name": "StatefulPartitionedCall/gomoku_net_1/sequential_54/sequential_38/residual_block_12/sequential_34/conv2d_33/Conv2D_weights", "shape": [7, 7, 128, 128], "dtype": "float32"}, {"name": "StatefulPartitionedCall/gomoku_net_1/sequential_54/sequential_38/residual_block_12/sequential_34/conv2d_33/Conv2D_bn_offset", "shape": [128], "dtype": "float32"}, {"name": "StatefulPartitionedCall/gomoku_net_1/sequential_54/sequential_38/residual_block_13/sequential_36/conv2d_35/Conv2D_weights", "shape": [7, 7, 128, 128], "dtype": "float32"}, {"name": "StatefulPartitionedCall/gomoku_net_1/sequential_54/sequential_53/residual_block_18/sequential_50/conv2d_48/Conv2D_bn_offset", "shape": [32], "dtype": "float32"}, {"name": "StatefulPartitionedCall/gomoku_net_1/sequential_54/sequential_38/residual_block_13/sequential_36/conv2d_35/Conv2D_bn_offset", "shape": [128], "dtype": "float32"}, {"name": "StatefulPartitionedCall/gomoku_net_1/sequential_54/sequential_38/residual_block_13/sequential_36/conv2d_36/Conv2D_weights", "shape": [7, 7, 128, 128], "dtype": "float32"}, {"name": "StatefulPartitionedCall/gomoku_net_1/sequential_54/sequential_53/residual_block_18/sequential_49/conv2d_47/Conv2D_weights", "shape": [7, 7, 32, 32], "dtype": "float32"}, {"name": "StatefulPartitionedCall/gomoku_net_1/sequential_54/sequential_38/residual_block_13/sequential_36/conv2d_36/Conv2D_bn_offset", "shape": [128], "dtype": "float32"}, {"name": "StatefulPartitionedCall/gomoku_net_1/sequential_54/sequential_43/residual_block_14/sequential_39/conv2d_37/Conv2D_weights", "shape": [7, 7, 128, 128], "dtype": "float32"}, {"name": "StatefulPartitionedCall/gomoku_net_1/sequential_54/sequential_43/residual_block_14/sequential_39/conv2d_37/Conv2D_bn_offset", "shape": [128], "dtype": "float32"}, {"name": "StatefulPartitionedCall/gomoku_net_1/sequential_54/sequential_53/residual_block_18/sequential_49/conv2d_47/Conv2D_bn_offset", "shape": [32], "dtype": "float32"}, {"name": "StatefulPartitionedCall/gomoku_net_1/sequential_54/sequential_43/residual_block_14/sequential_39/conv2d_38/Conv2D_weights", "shape": [7, 7, 128, 128], "dtype": "float32"}, {"name": "StatefulPartitionedCall/gomoku_net_1/sequential_54/sequential_43/residual_block_14/sequential_39/conv2d_38/Conv2D_bn_offset", "shape": [128], "dtype": "float32"}, {"name": "StatefulPartitionedCall/gomoku_net_1/sequential_54/sequential_43/residual_block_15/sequential_41/conv2d_39/Conv2D_weights", "shape": [7, 7, 128, 128], "dtype": "float32"}, {"name": "StatefulPartitionedCall/gomoku_net_1/sequential_54/sequential_43/residual_block_15/sequential_41/conv2d_39/Conv2D_bn_offset", "shape": [128], "dtype": "float32"}, {"name": "StatefulPartitionedCall/gomoku_net_1/sequential_54/sequential_43/residual_block_15/sequential_41/conv2d_40/Conv2D_weights", "shape": [7, 7, 128, 128], "dtype": "float32"}, {"name": "StatefulPartitionedCall/gomoku_net_1/sequential_54/sequential_53/residual_block_19/sequential_51/conv2d_49/Conv2D_weights", "shape": [7, 7, 32, 32], "dtype": "float32"}, {"name": "StatefulPartitionedCall/gomoku_net_1/sequential_54/sequential_43/residual_block_15/sequential_41/conv2d_40/Conv2D_bn_offset", "shape": [128], "dtype": "float32"}, {"name": "StatefulPartitionedCall/gomoku_net_1/sequential_54/sequential_48/residual_block_16/sequential_44/conv2d_41/Conv2D_weights", "shape": [7, 7, 128, 64], "dtype": "float32"}, {"name": "StatefulPartitionedCall/gomoku_net_1/sequential_54/sequential_48/residual_block_16/sequential_44/conv2d_41/Conv2D_bn_offset", "shape": [64], "dtype": "float32"}, {"name": "StatefulPartitionedCall/gomoku_net_1/sequential_54/sequential_53/residual_block_19/sequential_51/conv2d_49/Conv2D_bn_offset", "shape": [32], "dtype": "float32"}, {"name": "StatefulPartitionedCall/gomoku_net_1/sequential_54/sequential_48/residual_block_16/sequential_45/conv2d_43/Conv2D_weights", "shape": [1, 1, 128, 64], "dtype": "float32"}, {"name": "StatefulPartitionedCall/gomoku_net_1/sequential_54/sequential_48/residual_block_16/sequential_45/conv2d_43/Conv2D_bn_offset", "shape": [64], "dtype": "float32"}, {"name": "StatefulPartitionedCall/gomoku_net_1/sequential_54/sequential_48/residual_block_16/sequential_44/conv2d_42/Conv2D_weights", "shape": [7, 7, 64, 64], "dtype": "float32"}, {"name": "StatefulPartitionedCall/gomoku_net_1/sequential_54/sequential_48/residual_block_16/sequential_44/conv2d_42/Conv2D_bn_offset", "shape": [64], "dtype": "float32"}, {"name": "StatefulPartitionedCall/gomoku_net_1/sequential_54/sequential_48/residual_block_17/sequential_46/conv2d_44/Conv2D_weights", "shape": [7, 7, 64, 64], "dtype": "float32"}, {"name": "StatefulPartitionedCall/gomoku_net_1/sequential_54/sequential_53/residual_block_19/sequential_51/conv2d_50/Conv2D_weights", "shape": [7, 7, 32, 32], "dtype": "float32"}, {"name": "StatefulPartitionedCall/gomoku_net_1/sequential_54/sequential_48/residual_block_17/sequential_46/conv2d_44/Conv2D_bn_offset", "shape": [64], "dtype": "float32"}]}]}